Homework 1/direction_torch.pth (torch, 22134 bytes, 9 tensors)

weight f4 [40, 15]
-1.1061008 -0.06270092 0.1433471 0.076468356 -0.167509 0.4541145 -0.105417036 0.009367345
-0.36579993 -0.34219694 -0.561948 -0.9163729 0.41728547 0.47157118 0.0680372 -0.032852598
-0.1311566 0.12621318 0.005606654 0.06490904 0.06916671 -0.027363794 -0.17898831 0.17352623
0.10075669 0.03912787 -0.13286121 0.06294311 -0.182744 -0.0165748 -0.11213743 0.24221109
-0.1825086 -0.046581194 0.053105522 -0.066440694 -0.11061712 0.1918815 -0.08840127 0.004742146
0.15072149 0.017415846 -0.20138453 -0.033422288 -0.18917227 0.2584279 -0.10988468 -0.089822605
0.20605777 -0.08314986 -0.085597605 0.15600953 -0.04729701 0.23482917 -0.039648596 -0.21796006
-0.23009916 -0.037580896 -0.06262952 0.03679046 0.9007513 0.24629053 -1.1303566 -0.09123752
-1.6161886 -0.7457121 -1.053179 -0.8401808 0.47527215 -0.08232556 0.24048094 -2.277681
-0.15093145 -0.54757863 -0.6619134 -0.20930262 0.013556491 0.008118209 0.21402465 -0.24690057
-0.21306793 0.095865086 -0.009747687 -0.11949067 0.003709447 -0.16748393 0.2381662 -0.16422531
0.11495158 -0.16561215 -0.0062014335 -0.15785933 0.0744879 0.25656608 0.08301361 0.062000208
-0.15667363 0.15709451 0.02463346 -0.03138545 0.06743689 0.23436265 -0.057265643 -0.1827486
0.004013366 -0.19489068 0.06958002 -0.29609638 -0.1776317 -0.19353291 -0.014745579 -0.28204647
-0.08821527 0.20329522 0.06256767 0.07841576 0.00460172 -0.0013242913 -0.15320101 -0.046873495
-0.106895976 0.1529812 0.1552762 -0.107945755 0.048198342 0.007891732 -0.20925118 -0.07799448
0.1147851 0.25687623 -0.21052402 0.14344373 0.020353388 -0.04681926 -0.24289712 0.18054686
0.18696123 -0.17073475 -0.14076363 0.2562216 -0.13596913 0.24859026 -0.16086641 0.07730754
0.13518302 -0.16042903 0.14933768 0.14800058 0.20175162 0.16508135 0.010682127 0.20793301
-0.056963693 -0.23972894 -0.023661006 -0.15702313 -0.22640084 -0.13756546 -0.033307675 0.22932427
-0.18539703 0.17952381 0.1989931 -0.11720995 -0.22341435 -0.10837944 -0.06598596 -0.054816563
0.08305802 -0.09239132 -0.14464824 -0.032453075 -0.20777246 -0.07487056 0.19678861 0.10345739
0.23938513 0.2288275 -0.24435325 -0.022870738 0.015040688 0.22512579 0.24513225 -0.055752296
0.0520764 -0.21099673 -0.22481178 -0.14000094 -0.13403013 0.0278239 0.05339802 0.25345677
0.23377821 0.1705928 -0.076989956 -0.107948475 0.23893791 -0.083841875 0.18758325 -0.19380616
-0.08576908 -0.15001626 0.10324346 -0.19351268 -0.22644094 0.1869225 0.13734497 0.030169198
-0.09241306 0.068448015 -0.68845326 -0.077073 2.902228 -0.10217312 0.6045026 1.5896826
1.23215 -0.3969643 0.542118 0.28043866 0.33498055 1.8327059 -0.13994163 -0.41099426
0.057128347 -0.279251 0.045245353 0.7705213 -0.23175617 -1.0047605 -0.23811916 -0.2667545
-0.633934 0.87767017 0.061494026 -0.020536553 -0.8660234 -0.43412614 -0.3841375 -0.36923432
-0.39707592 -0.115474984 -0.27334908 0.2522377 -0.3668574 0.39307052 -0.34496915 0.11074909
-0.52301127 -0.33035526 -0.5975526 1.0168942 0.17165393 0.3142331 0.25972167 0.75543386
00000000: b694 8dbf 5769 80bd 95c9 123e 719b 9c3d
00000010: 7b87 2bbe b281 e83e e3e4 d7bd 7e79 193c
00000020: 214a bbbe 7034 afbe d3db 0fbf 6a97 6abf
00000030: 71a6 d53e c771 f13e 1657 8b3d 7290 06bd
00000040: ea4d 06be 073e 013e 06b8 b73b 08ef 843d
00000050: 47a7 8d3d 092a e0bc b648 37be dcb0 313e
00000060: 8659 ce3d 8c44 203d c50c 08be 51e8 803d
00000070: 3e21 3bbe e0c7 87bc 4fa8 e5bd 2f06 783e
00000080: 89e3 3abe eccb 3ebd 2d85 593d 0f12 88bd
00000090: 3b8b e2bd 957c 443e ba0b b5bd 0164 9b3b
000000a0: bc56 1a3e adab 8e3c bf37 4ebe cfe5 08bd
000000b0: 60b6 41be a950 843e 380b e1bd eaf4 b7bd
000000c0: cf00 533e 794a aabd cc4d afbd f6c0 1f3e
000000d0: 82ba 41bd 0f77 703e 9166 22bd ec30 5fbe
000000e0: 1d9f 6bbe 6dee 19bd e843 80bd 98b1 163d
000000f0: a397 663f 9633 7c3e 86af 90bf bdda babd
00000100: 45df cebf fde6 3ebf 92ce 86bf 1716 57bf
00000110: df56 f33e 4e9a a8bd a340 763e 87c5 11c0
00000120: c68d 1abe 1d2e 0cbf 2873 29bf 6d53 56be
00000130: 0b1c 5e3c 3d02 053c 4729 5b3e 81d3 7cbe
00000140: 7b2e 5abe ea54 c43d c3b4 1fbc 86b7 f4bd
00000150: 321a 733b e880 2bbe d7e1 733e ae2a 28be
00000160: bc6b eb3d 3b96 29be 6535 cbbb e0a5 21be
00000170: 1d8d 983d a15c 833e 0a03 aa3d eef3 7d3d
00000180: 0d6f 20be 62dd 203e 1ccc c93c 088e 00bd
00000190: 5a1c 8a3d c3fc 6f3e 618f 6abd 7322 3bbe
000001a0: 8e82 833b 6c91 47be f87f 8e3d f299 97be
000001b0: 16e5 35be 7e2d 46be 7197 71bc 6568 90be
000001c0: 35aa b4bd 9f2c 503e 7b23 803d 7198 a03d
000001d0: 06ca 963b d893 adba bae0 1cbe 6cfe 3fbd
000001e0: 47ec dabd 1ba7 1c3e b900 1f3e aa12 ddbd
000001f0: a06b 453d 534c 013c f145 56be 92bb 9fbd
00000200: 7314 eb3d 4885 833e 9c93 57be eae2 123e
00000210: 26bc a63c 8dc5 3fbd 06ba 78be 47e1 383e
00000220: c472 3f3e 17d5 2ebe 5724 10be 7a2f 833e
00000230: 7e3b 0bbe 728e 7e3e 2aba 24be 6a53 9e3d
00000240: 6b6d 0a3e 8247 24be faeb 183e 778d 173e
00000250: fa97 4e3e 160b 293e 1704 2f3c 64ec 543e
00000260: c352 69bd 817b 75be bad4 c1bc acca 20be
00000270: 9fd5 67be f6dd 0cbe a16d 08bd fbd3 6a3e
00000280: b8d8 3dbe 17d5 373e d9c4 4b3e c50b f0bd
00000290: bbc6 64be 0af6 ddbd a623 87bd 5587 60bd
000002a0: 531a aa3d a937 bdbd ab1e 14be 84ed 04bd
000002b0: 4ec2 54be bc55 99bd f482 493e 78e1 d33d
000002c0: 6021 753e c251 6a3e bd37 7abe 6a5b bbbc
000002d0: 386d 763c 6087 663e f303 7b3e 855c 64bd
000002e0: 104e 553d 870f 58be 0f35 66be 685c 0fbe
000002f0: 323f 09be f3ee e33c e2b7 5a3d 16c5 813e
00000300: 8e63 6f3e e1af 2e3e e9ac 9dbd 1714 ddbd
00000310: 24ac 743e 4ab5 abbd d315 403e 1f75 46be
00000320: b3a7 afbd dd9d 19be 4f71 d33d 3028 46be
00000330: 22e0 67be 9d68 3f3e 29a4 0c3e 6525 f73c
00000340: 0f43 bdbd 792e 8c3d 793e 30bf 73d8 9dbd
00000350: 1bbe 3940 2440 d1bd afc0 1a3f b87a cb3f
00000360: 17b7 9d3f e83e cbbe 3fc8 0a3f a895 8f3e
00000370: 9282 ab3e 1b96 ea3f dc4c 0fbe d76d d2be
00000380: 6aff 693d fdf9 8ebe 3153 393d e240 453f
00000390: 7d51 6dbe fe9b 80bf 82d5 73be 0c94 88be
000003a0: 8049 22bf feae 603f 29e1 7b3d 463c a8bc
000003b0: b6b3 5dbf c845 debe acad c4be 480c bdbe
000003c0: 894d cbbe 267e ecbd 69f4 8bbe 4d25 813e
000003d0: bcd4 bbbe 8a40 c93e cc9f b0be 6bd0 e23d
000003e0: 11e4 05bf 5324 a9be 35f9 18bf 9729 823f
000003f0: 0cc6 2f3e 29e3 a03e 3dfa 843e 1d64 413f

bias f4 [40]
0.32909882 0.12687163 -0.2704053 0.0007887109 0.20490466 0.09438043 -0.18980905 -0.1986847
-0.17344281 -0.08517234 0.07548627 -0.2069125 -0.23200305 0.09579094 0.045947313 -0.032725003
-0.04894463 0.119572245 -0.19521296 0.066749945 0.01972109 0.086905144 0.0005696235 -0.29106885
0.15446751 0.016626736 -0.08593189 -0.027172077 0.012339338 -0.10960573 0.24329056 0.16086645
0.20293894 -0.19120045 0.17551376 0.2166139 -0.22817913 -0.07802966 -0.19074404 -0.0734634
00000000: a47f a83e a3ea 013e 9072 8abe 7ec1 4e3a
00000010: 87d2 513e 874a c13d 4e5d 42be 0174 4bbe
00000020: fe9a 31be d66e aebd 8c98 9a3d dfe0 53be
00000030: 3592 6dbe 0a2e c43d 4033 3c3d a70a 06bd
00000040: 2a7a 48bd 4be2 f43d e8e5 47be 32b4 883d
00000050: 208e a13c 53fb b13d c952 153a fa06 95be
00000060: bb2c 1e3e cb34 883c 0ffd afbd fa97 debc
00000070: ef2a 4a3c f878 e0bd 2921 793e 2dba 243e
00000080: 3acf 4f3e 0dca 43be e1b9 333e 09d0 5d3e
00000090: caa7 69be 04ce 9fbd 6852 43be fb73 96bd

weight f4 [40, 40]
1.3189564 0.046872936 -0.089045495 0.019264573 -1.1231508 -0.114062116 -0.043059878 0.06961133
-0.13950773 0.06202889 0.0045345123 -0.006273639 -0.13867754 0.10216938 -0.4825174 -0.17609555
0.17033589 0.2528299 0.13681066 0.117486045 -1.4877979 -0.14177407 2.1421793 -0.0024413231
-0.30650744 -0.031549312 0.24930163 -0.0344347 -0.12231956 -0.08548196 0.010265386 1.5334023
0.059558567 0.083847076 -0.059541035 0.037235465 0.54501075 -0.04115445 0.05734394 0.018396068
-0.12151392 -0.08457522 -0.052554127 -0.15199147 0.015069711 -0.099849425 0.13146363 0.07687534
-0.09340568 0.15267779 0.042796656 -0.090642616 0.025454585 -0.069094114 0.116487294 -0.16119209
0.10144276 -0.034043156 -0.09801768 0.078159444 -0.15848625 0.12781858 0.07697839 -0.0116096195
0.07484457 0.05455148 0.053708125 -0.04571406 0.055231728 -0.14164922 -0.13809487 -0.18269524
-0.11305484 -0.024752265 -0.027352039 -0.09829577 -0.08771931 -0.1371799 -0.0786572 -0.069874786
1.0743318 -0.13237126 -0.12896907 0.11402579 -1.0504911 -0.15673393 0.11113177 0.0141631905
0.13801031 -0.1568799 -0.0724408 0.06347454 0.025548676 0.028653946 -0.45292 -0.35162696
0.04480068 0.16503939 -0.022446925 -0.0325102 -0.546099 -0.087963626 2.0896204 -0.10285609
-0.095698856 -0.05585296 0.43780556 -0.061823536 -0.14673918 -0.06632951 0.034406994 1.7994903
-0.013146061 -0.15365502 -0.022427907 0.065985724 0.6238277 0.31956822 0.025139034 -0.061410353
0.0658777 -0.0828819 0.13705523 -0.117771015 0.067437954 0.04379049 -0.0889551 0.026699236
-0.029057257 -0.022819752 -0.1153226 0.020847429 -0.10326362 -0.042599667 -0.015658693 -0.15898006
-0.08026375 -0.09916862 -0.15171441 0.12336435 -0.00019172045 -0.082433864 -0.1609823 -0.009330569
-0.008918377 0.05957389 0.03706121 0.035349652 0.15420829 0.15344055 0.013068085 0.027966592
-0.13331719 0.059372 -0.061875686 -0.05906863 0.10193931 0.094501935 -0.09748586 -0.026898371
-1.4734017 0.04864458 -0.092379294 -0.1489764 0.46765807 -0.13826858 -0.10770192 0.10113091
0.14245474 -0.09645305 0.122453324 -0.08636797 -0.07004931 -0.0824238 0.0670705 -0.103606656
0.22414969 -0.066602714 -0.05765391 -0.04745197 1.9593004 0.05067795 -1.3491536 0.021538515
0.28168562 -0.08798409 -0.06351473 -0.13020565 -0.09346701 0.07248453 -0.100311235 -1.1271846
-0.04785435 0.0861861 0.10659567 0.11818115 -0.79140246 0.4791593 -0.03920073 0.091546446
-0.10249114 -0.120672144 -0.01166831 0.037939455 0.080291584 -0.008208113 -0.06891343 0.04742824
-0.14307126 -0.15321231 0.053005308 -0.065446295 0.06207301 -0.07910668 -0.013584118 -0.15799442
-0.18721873 -0.13775395 -0.11967008 0.08007211 -0.11379889 0.022972576 -0.038033944 0.028724648
-0.10372108 -0.05174776 -0.16620982 -0.06461731 0.07634332 0.04629826 -0.06383442 0.034706216
0.02925023 -0.084217474 -0.0695668 -0.1762882 0.08168481 0.11728921 -0.1794417 0.15696068
-0.91665983 -0.025487022 0.06577181 -0.025596702 1.6211648 0.13289559 -0.050457027 -0.014904678
0.04682412 0.086020425 0.019958697 -0.05535138 -0.12122823 0.026089294 1.3365878 -0.1654946
00000000: 90d3 a83f d6fd 3f3d 7c5d b6bd bdd0 9d3c
00000010: 68c3 8fbf 6699 e9bd 8e5f 30bd 6390 8e3d
00000020: 1ddb 0ebe 0112 7e3d 3f96 943b 1993 cdbb
00000030: 7c01 0ebe 2e3e d13d 850c f7be 6452 34be
00000040: 886c 2e3e ec72 813e 1818 0c3e 869c f03d
00000050: 2970 bebf 392d 11be 7719 0940 9bfe 1fbb
00000060: 8bee 9cbe da39 01bd ed48 7f3e 660b 0dbd
00000070: ad82 fabd 2a11 afbd 2630 283c 8746 c43f
00000080: aff3 733d 04b8 ab3d 4de1 73bd 3784 183d
00000090: d385 0b3f 9291 28bd 7be1 6a3d 5ab3 963c
000000a0: 4adc f8bd c635 adbd ff42 57bd a7a3 1bbe
000000b0: f3e6 763c db7d ccbd 679e 063e d170 9d3d
000000c0: 7a4b bfbd 9157 1c3e 8c4b 2f3d d6a2 b9bd
000000d0: 2286 d03c 3781 8dbd e490 ee3d 8a0f 25be
000000e0: 39c1 cf3d d670 0bbd 7ebd c8bd 0f12 a03d
000000f0: 384a 22be e0e2 023e d9a6 9d3d 4636 3ebc
00000100: 1c48 993d 5f71 5f3d 0dfd 5b3d ab3e 3bbd
00000110: aa3a 623d 7e0c 11be be68 0dbe 7614 3bbe
00000120: 4c89 e7bd 43c5 cabc 6211 e0bc 4b4f c9bd
00000130: 2ea6 b3bd e378 0cbe 0717 a1bd 831a 8fbd
00000140: b483 893f 558c 07be 7810 04be 5a86 e93d
00000150: 7e76 86bf dc7e 20be 0e99 e33d ba0c 683c
00000160: 9352 0d3e 20a5 20be d85b 94bd f1fe 813d
00000170: 754b d13c aebb ea3c 21e5 e7be 7308 b4be
00000180: eb80 373d 1600 293e 9de2 b7bc 6a29 05bd
00000190: 25cd 0bbf 4626 b4bd 57bc 0540 37a6 d2bd
000001a0: c3fd c3bd 13c6 64bd 0d28 e03e ad3a 7dbd
000001b0: cc42 16be c4d7 87bd 59ee 0c3d b355 e63f
000001c0: 9462 57bc be57 1dbe bbba b7bc 8623 873d
000001d0: 2cb3 1f3f 729e a33e 60f0 cd3c 6c89 7bbd
000001e0: e3ea 863d fcbd a9bd 3558 0c3e ee31 f1bd
000001f0: e91c 8a3d a85d 333d 172e b6bd 5bb8 da3c
00000200: 7c09 eebc 7df0 babc 412e ecbd 3ac8 aa3c
00000210: e07b d3bd fd7c 2ebd a946 80bc abcb 22be
00000220: 5261 a4bd eb18 cbbd 065b 1bbe 73a6 fc3d
00000230: 9108 49b9 16d3 a8bd 8bd8 24be 3edf 18bc
00000240: 621e 12bc c003 743d 7fcd 173d ccca 103d
00000250: c7e8 1d3e 851f 1d3e 851b 563c 321a e53c
00000260: 4d84 08be 0e30 733d 5c71 7dbd f3f1 71bd
00000270: 8fc5 d03d 3b8a c13d aba6 c7bd f959 dcbc
00000280: 6d98 bcbf 8a3f 473d 5b31 bdbd 458d 18be
00000290: e170 ef3e 4796 0dbe d392 dcbd b91d cf3d
000002a0: a8df 113e 2d89 c5bd cfc8 fa3d b1e1 b0bd
000002b0: 0376 8fbd cfcd a8bd 425c 893d ba2f d4bd
000002c0: 7f87 653e 0167 88bd 8226 6cbd ff5c 42bd
000002d0: 5bca fa3f af93 4f3d 11b1 acbf 8a71 b03c
000002e0: 1939 903e 0131 b4bd 0314 82bd a154 05be
000002f0: a26b bfbd c572 943d fa6f cdbd 9647 90bf
00000300: ec02 44bd 5782 b03d d54e da3d f508 f23d
00000310: 5a99 4abf 5e54 f53e f290 20bd b47c bb3d
00000320: e0e6 d1bd f522 f7bd 702c 3fbc 6766 1b3d
00000330: ea6f a43d 527b 06bc 7c22 8dbd 1d44 423d
00000340: 4681 12be b0e3 1cbe 181c 593d b508 86bd
00000350: 4540 7e3d af02 a2bd ec8f 5ebc 4ac9 21be
00000360: 44b6 3fbe 5f0f 0dbe 9615 f5bd d9fc a33d
00000370: 640f e9bd fc30 bc3c 7bc9 1bbd f44f eb3c
00000380: b86b d4bd 76f5 53bd e832 2abe 1556 84bd
00000390: e359 9c3d 3fa3 3d3d 9fbb 82bd 1b28 0e3d
000003a0: 2e9e ef3c 367a acbd 0a79 8ebd e584 34be
000003b0: 5e4a a73d 5335 f03d 91bf 37be 4dba 203e
000003c0: 38aa 6abf 29ca d0bc 5fb3 863d 2db0 d1bc
000003d0: 5482 cf3f c815 083e 07ac 4ebd c032 74bc
000003e0: a6ca 3f3d 7a2b b03d 6c80 a33c 21b8 62bd
000003f0: 8246 f8bd 37b9 d53c 4f15 ab3f 6b77 29be

bias f4 [40]
0.118876435 -0.16496065 -0.07618317 -0.12931752 0.31036815 0.019886727 0.4623211 0.26285437
-0.1408678 -0.02847898 -0.09101121 0.2623478 -0.087037474 -0.14563139 -0.116500296 -0.1340929
-0.062142935 0.08905921 0.33950406 0.46678737 0.11771595 0.32031086 -0.0009392547 -0.0604396
-0.14883144 0.016456848 0.41379943 0.3356939 -0.19234696 0.3110861 -0.14875723 0.39644563
0.4941794 0.19868295 -0.070459425 0.271223 -0.13461784 0.1765762 -0.2436374 0.2186953
00000000: 7d75 f33d 72eb 28be ec05 9cbd d06b 04be
00000010: 93e8 9e3e 7de9 a23c 5ab5 ec3e d994 863e
00000020: a63f 10be c04c e9bc 1664 babd 7352 863e
00000030: b440 b2bd 6520 15be b597 eebd a64f 09be
00000040: 9789 7ebd ad64 b63d 7ad3 ad3e c1fe ee3e
00000050: 0f15 f13d c9ff a33e 5138 76ba 848f 77bd
00000060: 4567 18be 83d0 863c 85dd d33e 12e0 ab3e
00000070: 9af6 44be ad46 9f3e d153 18be ecfa ca3e
00000080: 1505 fd3e 8b73 4b3e 084d 90bd bedd 8a3e
00000090: 42d9 09be 64d0 343e 157c 79be a9f1 5f3e

weight f4 [40, 40]
0.08186714 -0.060574245 0.10320064 0.104239576 -0.14491688 -0.01672114 -0.15135291 -0.1277322
-0.1518122 0.09061723 0.10643318 0.019629788 0.13383901 -0.1387581 -0.14509778 0.10190065
0.08132455 0.120626755 -0.12636368 -0.15541385 0.09141651 0.056681093 0.14322922 0.031168193
-0.04198511 0.043439638 -0.09695752 0.084917076 0.06195276 0.05856673 -0.1176033 0.14029096
0.04906726 -0.11836988 0.07161197 0.06755925 -0.048685517 -0.15172097 -0.00011659771 -0.1193324
0.107370146 0.0022525447 -0.065660566 -0.013008561 -0.02523939 0.03938115 -0.081994504 0.01608055
0.15366174 -0.03514482 0.11009839 0.13993394 0.008657031 0.0077651134 0.050255556 -0.10580441
-0.14283223 0.089833334 -0.11731865 -0.067629024 -0.10240472 -0.064148664 0.12480094 0.04564463
0.04566983 -0.109283194 0.07921568 -0.08306199 -0.02823604 0.13917156 -0.13885213 -0.07608472
-0.15440808 -0.13641834 0.12967883 -0.07680504 0.12149468 -0.040749826 0.076624766 0.11154759
-0.092241794 -0.00019065403 0.14004867 -0.010973171 0.15142812 -0.064941645 0.12157394 0.10856786
0.15042186 -0.062879115 -0.0013550478 0.09184064 -0.11131151 0.020254375 -0.1328744 -0.05901503
-0.13478607 -0.049852777 0.11084672 0.1250239 -0.022705982 0.14148384 0.029868748 -0.022518758
-0.018626343 0.12098377 -0.12385242 -0.12516038 0.15072209 0.10008249 -0.010059804 0.04677223
0.023368059 -0.1436652 -0.08799007 0.04451209 -0.028466277 -0.0036233878 0.12877421 0.13670817
-0.13473302 0.109960064 0.14689654 -0.04463728 -0.05259399 -0.08179469 -0.12506153 -0.023585232
0.08993779 0.04343551 -0.1028336 0.024427371 -0.06687529 0.035986584 -0.07131181 0.03145311
0.009807628 0.022378523 -0.15743747 0.12412795 0.15067664 0.112408444 -0.035526507 0.11969032
-0.036730655 0.02594808 -0.07782047 0.12389008 0.11837704 -0.045100074 0.14077066 0.033180643
0.06976874 0.005997563 -0.123864464 -0.0272217 0.15335456 0.08361886 0.015867844 0.03406781
0.13590187 -0.030105261 -0.06244041 0.083972044 0.15273145 0.11426461 0.13159326 0.09425558
-0.12852429 -0.00039631157 0.1117083 -0.13025421 -0.08529358 0.05789378 -0.1574744 -0.06133405
-0.11592342 0.06908086 0.091776386 0.072020195 -0.021214092 0.10591055 0.15119311 -0.10049884
0.06926829 0.08779738 0.06873871 0.13106717 0.1095133 0.1474291 0.11696452 0.12704358
-0.011126373 -0.07590842 -0.08514205 0.13509941 0.0035864445 -0.010668257 0.078588344 0.019163642
-0.078557506 -0.07095027 0.026966397 0.0982527 0.15342085 -0.04282097 -0.0843851 -0.06088012
-0.011492508 0.017081922 -0.10437849 0.03168306 0.05302182 0.13281189 -0.029541573 -0.030953903
-0.04936392 -0.030028151 0.11189783 -0.064302884 0.0036597091 0.072525606 0.006007685 -0.05194835
0.096405625 -0.151494 -0.02856478 -0.04051158 -0.018271724 -0.009671974 0.1549374 -0.13572541
-0.057553973 0.14997664 0.14961077 -0.14807706 -0.1526955 -0.09397323 -0.13184048 0.09846974
0.123297155 -0.10148362 0.036689 0.13626803 -0.05056105 -0.015647164 0.12015599 0.120357074
-0.046526086 0.09727647 -0.08617653 -0.1477312 0.08954789 0.15424462 0.1517455 -0.04358204
00000000: f6a9 a73d b31c 78bd db5a d33d 8f7b d53d
00000010: 1765 14be c6fa 88bc 42fc 1abe 3bcc 02be
00000020: a874 1bbe 8795 b93d a4f9 d93d a6ce a03c
00000030: 180d 093e 9a16 0ebe 8394 14be 4ab1 d03d
00000040: 7c8d a63d 290b f73d 7b65 01be cf24 1fbe
00000050: 9438 bb3d 6f2a 683d aeaa 123e 7054 ff3c
00000060: 94f8 2bbd c3ed 313d aa91 c6bd 01e9 ad3d
00000070: 2dc2 7d3d abe3 6f3d 00da f0bd 6fa8 0f3e
00000080: c0fa 483d e86b f2bd 4ca9 923d 815c 8a3d
00000090: 776a 47bd be5c 1bbe eb85 f4b8 8c64 f4bd
000000a0: e1e4 db3d 6e9f 133b 0c79 86bd dc21 55bc
000000b0: d6c2 cebc 214e 213d bcec a7bd 5cbb 833c
000000c0: 8159 1d3e 04f4 0fbd 447b e13d d84a 0f3e
000000d0: 38d6 0d3c 7e72 fe3b c5d8 4d3d fcaf d8bd
000000e0: 9d42 12be 8afa b73d c344 f0bd 1681 8abd
000000f0: 91b9 d1bd 6060 83bd a397 ff3d ddf5 3a3d
00000100: 4a10 3b3d decf dfbd d53b a23d 681c aabd
00000110: 454f e7bc fd82 0e3e 412f 0ebe 4ed2 9bbd
00000120: 271d 1ebe 40b1 0bbe 87ca 043e f64b 9dbd
00000130: 34d2 f83d 4ae9 26bd 72ed 9c3d 1073 e43d
00000140: 44e9 bcbd 4dea 47b9 eb68 0f3e d1c8 33bc
00000150: f90f 1b3e 2000 85bd c2fb f83d d458 de3d
00000160: 3008 1a3e c4c6 80bd dc9b b1ba f216 bc3d
00000170: 4af7 e3bd 81ec a53c 3a10 08be beb9 71bd
00000180: 5c05 0abe 6d32 4cbd 9b03 e33d 4406 003e
00000190: e501 babc 24e1 103e 4eaf f43c 4279 b8bc
000001a0: 4696 98bc 57c6 f73d 56a6 fdbd 0b2a 00be
000001b0: e456 1a3e 0cf8 cc3d e0d1 24bc 3d94 3f3d
000001c0: 5f6e bf3c f81c 13be 2334 b4bd 4f52 363d
000001d0: 1c32 e9bc 5c76 6dbb 63dd 033e 3afd 0b3e
000001e0: 74f7 09be be32 e13d 0c6c 163e 95d5 36bd
000001f0: cc6c 57bd f983 a7bd 2110 00be d135 c1bc
00000200: 4e31 b83d 6fe9 313d 6c9a d2bd e91b c83c
00000210: e9f5 88bd ab66 133d ed0b 92bd fad4 003d
00000220: 2cb0 203c 2a53 b73c 4a37 21be cb36 fe3d
00000230: fa4a 1a3e 6636 e63d 3e84 11bd 3320 f53d
00000240: e272 16bd 1191 d43c 5760 9fbd 15ba fd3d
00000250: a96f f23d dbba 38bd 2f26 103e 6de8 073d
00000260: eae2 8e3d 3487 c43b a7ac fdbd 0b00 dfbc
00000270: fa08 1d3e 5d40 ab3d 48fd 813c b08a 0b3d
00000280: dc29 0b3e 4f9f f6bc 84c1 7fbd 89f9 ab3d
00000290: a265 1c3e 9003 ea3d 62c0 063e 1209 c13d
000002a0: df9b 03be 0ac8 cfb9 52c7 e43d 5c61 05be
000002b0: 67ae aebd 0722 6d3d f840 21be 6a39 7bbd
000002c0: 4269 edbd 447a 8d3d 42f5 bb3d 537f 933d
000002d0: 2dc9 adbc a1e7 d83d 5ed2 1a3e 56d2 cdbd
000002e0: 89dc 8d3d 1dcf b33d e1c6 8c3d 7936 063e
000002f0: 8248 e03d a7f7 163e 188b ef3d b617 023e
00000300: 644b 36bc e075 9bbd f55e aebd 8057 0a3e
00000310: 8e0a 6b3b eac9 2ebc edf2 a03d 12fd 9c3c
00000320: c2e2 a0bd 604e 91bd a2e8 dc3c b638 c93d
00000330: 5b1a 1d3e 0b65 2fbd 18d2 acbd 6f5d 79bd
00000340: 134b 3cbc 63ef 8b3c 64c4 d5bd 19c6 013d
00000350: 682d 593d d7ff 073e 2b01 f2bc 0a93 fdbc
00000360: d231 4abd 99fd f5bc b12a e53d 3bb1 83bd
00000370: bbd7 6f3b 4e88 943d 1ddc c43b cbc7 54bd
00000380: 5070 c53d 3e21 1bbe af00 eabc 78ef 25bd
00000390: 95ae 95bc 3377 1ebc e9a7 1e3e 9afb 0abe
000003a0: b7bd 6bbd 7a93 193e 9133 193e 83a1 17be
000003b0: 365c 1cbe 0975 c0bd 3101 07be 81aa c93d
000003c0: 3883 fc3d a5d6 cfbd 3447 163d d989 0b3e
000003d0: 1b19 4fbd 7b2e 80bc 5814 f63d c57d f63d
000003e0: 2392 3ebd e338 c73d 527d b0bd d946 17be
000003f0: e264 b73d 4df2 1d3e 2c63 1b3e 1583 32bd

bias f4 [40]
-0.08870068 -0.14997332 0.1513377 -0.13682848 -0.03206403 0.03920546 0.045191865 -0.040330425
-0.1368627 -0.1537852 0.070237756 0.07475597 0.04625318 -0.0383846 -0.14242889 0.15445462
-0.035304055 -0.06498739 -0.02846899 -0.011631629 0.073982544 0.06793579 0.052222148 0.105499305
-0.13159895 0.11578173 0.11545665 -0.15527323 -0.035312876 -0.05145478 -0.0034725044 0.0043126075
-0.026538193 0.11209399 0.13136226 0.13548449 -0.13342749 0.04629696 0.06654774 0.10164416
00000000: b4a8 b5bd 9b92 19be 45f8 1a3e c41c 0cbe
00000010: 9355 03bd e895 203d 1b1b 393d 8431 25bd
00000020: bc25 0cbe de79 1dbe d0d8 8f3d a819 993d
00000030: f973 3d3d 2c39 1dbd e1d8 11be 5a29 1e3e
00000040: fc9a 10bd 1c18 85bd cd37 e9bc 9792 3ebc
00000050: 2984 973d eb21 8b3d e4e6 553d 0510 d83d
00000060: e0c1 06be f91e ed3d 8974 ec3d f2ff 1ebe
00000070: 3ca4 10bd 3fc2 52bd f592 63bb c650 8d3b
00000080: a066 d9bc 8991 e53d d483 063e 72bc 0a3e
00000090: 37a1 08be e2a1 3d3d 2e4a 883d d02a d03d

weight f4 [10, 20]
-0.11031066 0.11679577 0.13350995 0.047969777 0.18479244 -0.1575575 -0.14926772 0.030015837
-0.20150492 -0.07584788 -0.1407184 0.004328296 0.019403547 -0.031306013 0.041403282 0.21864644
-0.10864802 0.12098058 0.0012314542 0.064209074 0.018990992 0.061502498 -0.0412655 -0.018401895
0.076882266 -0.0036281757 -0.02534773 0.116315484 -0.0885551 0.16595654 -0.06010527 0.16172637
0.19593908 0.038277812 -0.09910791 -0.18817422 0.16614375 0.19480282 -0.079138085 0.03655797
-0.025796937 -0.07142792 -0.052920572 -0.1664834 -0.090658225 0.12783235 0.009964282 0.030612744
-0.01938782 0.0019969882 -0.048091248 0.080922574 0.061869394 -0.21333136 0.18890873 0.084424295
-0.009890125 0.07409421 -0.15298189 -0.046464514 0.2167895 -0.039247237 -0.14870656 0.061441615
0.10852858 -0.20808281 0.1913076 0.20512567 0.11051301 -0.12148843 0.0988433 -0.18249023
-0.22285256 -0.078371726 -0.20179784 0.052234657 0.109121084 0.050416827 -0.19941986 -0.070756614
-0.08474078 0.07491346 -0.09953905 0.09391511 -0.13326734 0.22331187 0.16836771 0.13877256
-0.002472931 -0.0021756634 0.13091506 -0.12729113 0.0048744776 -0.09475838 0.018843051 -0.20144497
-0.14678754 0.02193712 -0.13241923 0.0015894443 -0.18142258 -0.08104703 0.050799686 -0.024264617
0.06803325 0.023125846 0.1944488 -0.016378358 -0.054276936 -0.053432446 0.18335404 -0.016758205
0.012109664 0.04372281 0.10416773 -0.19919626 0.08315064 0.19257993 0.18978515 -0.18569759
0.042023942 -0.16202296 0.030252408 -0.19003727 0.19339938 -0.063824154 0.17702806 0.21346411
0.14595301 0.18271363 0.022804348 -0.05155344 0.10053782 -0.12596634 -0.12785357 0.13118309
-0.17493863 -0.06628179 -0.107881896 -0.10656088 -0.042583585 0.080293916 -0.020441638 0.18989187
-0.10923099 0.19950332 0.15484712 -0.06704098 0.18293232 -0.18629774 0.15835953 -0.13555385
-0.099250846 0.099810034 -0.19339642 0.20896336 -0.060856197 -0.13352953 -0.064229146 0.18714488
-0.080752425 0.17573413 0.20497337 -0.2075835 0.06396871 0.056331687 -0.12704395 0.1618445
-0.14937256 -0.062100608 -0.051541176 0.1347567 -0.027316276 -0.11102097 -0.21189186 -0.18767773
0.019481009 -0.0038674935 0.13252917 -0.18382894 -0.03045966 -0.03513896 0.14281105 -0.035937734
0.21602316 0.033249132 0.14661871 -0.1819803 0.065615945 -0.18952301 0.0736659 -0.0456631
0.11875438 -0.07853747 0.18462226 -0.065990515 0.07509986 -0.2034635 0.04591393 -0.00835266
00000000: 8eea e1bd 9f32 ef3d d5b6 083e f57b 443d
00000010: 3b3a 3d3e c156 21be a3d9 18be c6e3 f53c
00000020: 4e57 4ebe 2256 9bbd 7c18 10be 61d4 8d3b
00000030: 30f4 9e3c bc3a 00bd 7d96 293d dae4 5f3e
00000040: da82 debd abc4 f73d bf68 a13a 0c80 833d
00000050: ff92 9b3c 0bea 7b3d 0306 29bd 92bf 96bc
00000060: 7374 9d3d b0c6 6dbb 0ba6 cfbc d036 ee3d
00000070: 605c b5bd 83f0 293e f230 76bd 999b 253e
00000080: 41a4 483e 32c9 1c3d 17f9 cabd beb0 40be
00000090: 9621 2a3e 647a 473e 2613 a2bd cfbd 153d
000000a0: 1954 d3bc cd48 92bd 3ec3 58bd a07a 2abe
000000b0: 05ab b9bd 7ce6 023e 3a41 233c 94c7 fa3c
000000c0: 35d3 9ebc e7df 023b 54fb 44bd bcba a53d
000000d0: c36a 7d3d 8973 5abe 4a71 413e a5e6 ac3d
000000e0: 310a 22bc b5be 973d 49a7 1cbe 9351 3ebd
000000f0: 11fe 5d3e b6c1 20bd 8846 18be 34aa 7b3d
00000100: 3b44 de3d a913 55be 24e6 433e 770c 523e
00000110: a554 e23d edce f8bd 5b6e ca3d b8de 3abe
00000120: 7633 64be 5b81 a0bd 18a4 4ebe 02f4 553d
00000130: e07a df3d e081 4e3d b834 4cbe d8e8 90bd
00000140: 938c adbd 3a6c 993d 21db cbbd 9156 c03d
00000150: 3c77 08be deab 643e 9668 2c3e 651a 0e3e
00000160: e610 22bb 9395 0ebb 990e 063e 9b58 02be
00000170: 15ba 9f3b ae10 c2bd be5c 9a3c 9747 4ebe
00000180: 794f 16be 7ab5 b33c e898 07be e754 d03a
00000190: d7c6 39be fcfb a5bd 5513 503d 97c6 c6bc
000001a0: 0455 8b3d 6a72 bd3c 961d 473e e82b 86bc
000001b0: 7e51 5ebd fbdb 5abd 29c1 3b3e 8148 89bc
000001c0: 9d67 463c b016 333d e455 d53d 1bfa 4bbe
000001d0: e24a aa3d ac33 453e 0a57 423e 8227 3ebe
000001e0: 4c21 2c3d 59e9 25be e6d3 f73c 2199 42be
000001f0: 7d0a 463e 3db6 82bd d846 353e 5696 5a3e
00000200: b574 153e 4819 3b3e 2fd0 ba3c b329 53bd
00000210: c6e6 cd3d 52fd 00be 0cec 02be dc54 063e
00000220: 1d23 33be bfbe 87bd 2ff1 dcbd 973c dabd
00000230: 206c 2ebd 2371 a43d 3975 a7bc 0473 423e
00000240: 7fb4 dfbd 994a 4c3e 3e90 1e3e c84c 89bd
00000250: 9c52 3b3e d6c4 3ebe 0029 223e a1ce 0abe
00000260: 0744 cbbd 3469 cc3d b609 46be 7efa 553e
00000270: 5944 79bd f7bb 08be 928a 83bd e8a2 3f3e
00000280: 8761 a5bd a6f3 333e 8ae4 513e c590 54be
00000290: 0702 833d 0ebc 663d cf17 02be 91ba 253e
000002a0: 1ff5 18be 355d 7ebd d71c 53bd a9fd 093e
000002b0: 62c6 dfbc f65e e3bd 2efa 58be 972e 40be
000002c0: a396 9f3c c675 7dbb bab5 073e a73d 3cbe
000002d0: 8986 f9bc dfed 0fbd 0f3d 123e 7233 13bd
000002e0: 2d35 5d3e 3e30 083d 3723 163e 0b59 3abe
000002f0: a761 863d 5212 42be 26de 963d 3b09 3bbd
00000300: 7f35 f33d 41d8 a0bd 9e0d 3d3e 0926 87bd
00000310: f5cd 993d bc58 50be 3f10 3c3d 98d9 08bc

bias f4 [10]
-0.17203479 -0.14305365 -0.14390208 -0.030096205 0.20718218 0.07186257 -0.13045378 -0.21362925
-0.022354394 -0.16493529
00000000: e329 30be a87c 12be 115b 13be 518c f6bc
00000010: 9127 543e af2c 933d ad95 05be a0c1 5abe
00000020: 9020 b7bc cce4 28be

weight f4 [1, 40]
1.3733289 0.010569516 1.9733536 -0.07804014 -1.5298455 -0.028539523 -1.92959 -2.2395613
-0.05321775 -0.36225697 0.021436274 -1.5863475 0.020952228 0.010324861 0.02314338 3.049737
2.1575942 1.091048 -2.9561183 -1.8561928 -0.651939 -1.5623325 2.4004133 1.7496747
0.13694426 1.3887429 -1.6767783 -1.090043 0.08631723 -1.9209423 -0.039760888 -1.2231642
-1.2793491 -1.4460826 -0.004180812 -2.2151787 0.09069837 -3.5424783 4.63258 -2.6433787
00000000: 3ec9 af3f c32b 2d3c da96 fc3f 82d3 9fbd
00000010: fad1 c3bf b8cb e9bc cefc f6bf f954 0fc0
00000020: dbfa 59bd bf79 b9be 209b af3c 6f0d cbbf
00000030: 02a4 ab3c 9b29 293c 3097 bd3c e42e 4340
00000040: 0616 0a40 76a7 8b3f 0b31 3dc0 ba97 edbf
00000050: 79e5 26bf 83fa c7bf 5fa0 1940 57f5 df3f
00000060: 1e3b 0c3e 54c2 b13f aca0 d6bf 8786 8bbf
00000070: 16c7 b03d 70e1 f5bf 50dc 22bd a590 9cbf
00000080: b6c1 a3bf 3c19 b9bf 31ff 88bb 7dc5 0dc0
00000090: 11c0 b93d f7b7 62c0 183e 9440 1e2d 29c0
